model/keypoint_classifier/keypoint_classifier.tflite (tflite, 6432 bytes, 6 tensors)

dense_8/bias f4 [4]
-0.232467 0.5583765 0.17579973 -0.35208705
00000000: d40b 6ebe c3f1 0e3f d804 343e c144 b4be

dense_7/bias f4 [10]
0.23610294 -0.27831182 0.34562263 -0.2311858 0.628684 -0.06366068 0.34510362 0.53352994
-0.3075737 -0.053135514
00000000: f8c4 713e e37e 8ebe 73f5 b03e f8bb 6cbe
00000010: 6ff1 203f 8860 82bd 6cb1 b03e 6b95 083f
00000020: 4d7a 9dbe a0a4 59bd

dense_6/bias f4 [20]
-0.27389655 -0.4691816 0.28646478 -0.4287562 0.28724024 -0.36151344 -0.5991736 -0.109015785
-0.15491652 0.165944 -0.32026166 0.27433524 0.38421234 -0.14108151 -0.06380144 0.1632005
-0.61775714 -0.19217144 -0.042157825 -0.108558886
00000000: 2b3c 8cbe 9238 f0be 83ab 923e ef85 dbbe
00000010: 2711 933e 4a18 b9be 7163 19bf ab43 dfbd
00000020: 70a2 1ebe 39ed 293e 56f9 a3be ab75 8c3e
00000030: 7bb7 c43e ac77 10be 54aa 82bd 081e 273e
00000040: 5525 1ebf 97c8 44be afad 2cbd 1f54 debd

sequential_2/dense_6/MatMul f4 [20, 42]
0.106414616 0.23078227 0.20516273 0.40882313 0.16855782 0.14110744 -0.4070765 0.21094085
-0.9550479 0.19618496 0.2855574 0.033858664 0.030500367 0.15065269 0.09612526 0.056696694
0.1571052 0.0071200803 -0.0076089394 0.16470496 -0.16816111 0.070714004 -0.059598196 -0.0111035425
-0.0767566 -0.09996245 -0.4431904 -0.005475826 -0.018416548 0.028869605 0.15957232 -0.24004406
0.74530274 -0.4167043 -0.3434318 -0.043745127 0.28348786 0.05003563 0.9936008 -0.44036055
0.6681866 -0.49620345 0.16938055 0.21663022 -0.03798869 -0.5537956 -0.41008982 -0.66163665
-0.15862183 -0.12135485 0.10486943 -0.24657123 -0.022857815 -0.3835926 -0.27638 0.07724839
-0.05141219 0.26850757 0.08440897 0.22580892 0.09206488 -0.27051133 -0.15322915 0.031838927
-0.36237425 0.16176075 0.099159695 0.1273509 -0.030400014 -0.04429485 -0.33669153 0.022226531
-0.59366685 0.14426377 0.13913079 0.114780955 0.38324007 0.046587598 -0.13791397 -0.12459856
-0.09011998 0.097662635 0.4859765 0.11861068 -0.060885936 0.15685406 -0.12766469 -0.0802503
0.19148888 0.010380442 0.34320468 0.117295936 0.61337614 -0.058349825 0.13761881 -0.010242905
-0.095611565 0.018679958 -0.019909935 0.108432814 -0.07121545 -0.07157456 0.41549838 0.06499346
0.5535416 0.05786421 0.4943385 -0.07435061 0.7961416 0.009609754 0.5865139 -0.12094299
0.5430757 -0.21549599 0.26608643 -0.033338916 -0.157895 0.022347415 0.03192477 -0.06481951
0.1976038 -0.06613949 -0.5412327 0.09241138 -0.82923234 0.13916728 0.2602285 -0.018613577
-0.03432838 -0.14843452 -0.20710807 0.07250033 -0.27540237 -0.016059803 -0.51624185 0.062132914
-0.21988484 0.024556622 0.11374428 0.06857043 0.07377985 0.1079951 0.12951891 0.0866888
0.007367302 0.05655643 -0.25615013 0.0077610547 -0.17101736 0.069704145 -0.009872049 0.0075450568
-0.02431163 -0.08494004 -0.4484577 -0.102451615 0.18052377 -0.18940192 0.5219383 -0.18340085
-0.1041909 0.0652261 0.15298294 -0.045781724 1.0033499 -0.14515388 1.3327413 -0.39313483
-0.071447626 0.31058222 0.13600904 0.81976664 0.08972426 0.41584074 0.047491398 0.15459394
0.05874093 0.16763124 -0.13634908 0.11942263 0.14873044 -0.25441462 0.16735731 -0.3186859
-0.0056275995 -0.7395988 -0.05721254 0.10117376 0.03854311 0.06382854 0.01849037 0.38896757
-0.0020062267 0.44356385 -0.17223793 -0.02338953 -0.10384356 0.21666251 0.00010277654 0.2456821
-0.08328635 0.4484892 -0.027988845 -0.10245724 0.026670221 -0.08711371 0.10796699 0.0119824745
-0.052672654 0.3152734 0.21776396 0.10879609 0.11085467 -0.47169694 0.09618975 -0.29194456
0.08685139 -0.26198158 0.4490996 -0.19773458 -0.19276157 -0.15971805 -0.53453666 0.03722533
-0.43220806 0.16665117 -0.1513216 0.1387943 -0.02558312 -0.11378762 0.009261979 -0.017541656
0.1479623 -0.12899064 0.4038149 -0.37829193 0.14311782 0.019022286 -0.10644232 -0.040057074
0.21209827 -0.05964924 -0.024440035 -0.22973208 0.05219316 0.19083841 -0.20231558 -0.10870125
-0.11903072 0.16100425 -0.5889601 0.04370233 0.026568085 0.2846228 0.1311978 -0.22600105
00000000: e8ef d93d 3052 6c3e 2e16 523e 4451 d13e
00000010: 6c9a 2c3e 787e 103e 556c d0be e100 583e
00000020: 057e 74bf b6e4 483e 9434 923e 62af 0a3d
00000030: e8db f93c b344 1a3e 52dd c43d cb3a 683d
00000040: 30e0 203e 904f e93b 6954 f9bb 6ba8 283e
00000050: 6d32 2cbe 81d2 903d 3d1d 74bd a2eb 35bc
00000060: 9032 9dbd 1db9 ccbd dae9 e2be 8f6e b3bb
00000070: 4dde 96bc f37f ec3c ed66 233e 1cce 75be
00000080: 29cc 3e3f 445a d5be 4bd6 afbe 172e 33bd
00000090: 5225 913e 29f2 4c3d 9f5c 7e3f f076 e1be
000000a0: 470e 2b3f 610e febe 1872 2d3e 50d4 5d3e
000000b0: 079a 1bbd 8cc5 0dbf 4bf7 d1be 0561 29bf
000000c0: c36d 22be e488 f8bd c9c5 d63d 2b7d 7cbe
000000d0: 5040 bbbc 4066 c4be ae81 8dbe 6734 9e3d
000000e0: 9795 52bd d379 893e 9cde ac3d 743a 673e
000000f0: 838c bc3d 7680 8abe 1ae8 1cbe 8969 023d
00000100: 1e89 b9be 9ca4 253e 3d14 cb3d 4668 023e
00000110: 7309 f9bc 846e 35bd d562 acbe 6a14 b63c
00000120: 8dfa 17bf e2b9 133e 4d78 0e3e 4712 eb3d
00000130: 0b38 c43e a3d2 3e3d 5239 0dbe 882d ffbd
00000140: d390 b8bd 5903 c83d e9d1 f83e 28ea f23d
00000150: 8863 79bd 5a9e 203e 88ba 02be 455a a4bd
00000160: a915 443e bb12 2a3c 86b8 af3e da38 f03d
00000170: 3806 1d3f 3a00 6fbd f2eb 0c3e dbd1 27bc
00000180: ffcf c3bd b606 993c 291a a3bc 0612 de3d
00000190: 68d9 91bd af95 92bd 34bc d43e 4b1b 853d
000001a0: e7b4 0d3f 0603 6d3d f019 fd3e 2245 98bd
000001b0: f0cf 4b3f 3b72 1d3c c625 163f f5b0 f7bd
000001c0: 0207 0b3f fbaa 5cbe 7b3c 883e 638e 08bd
000001d0: 3aaf 21be ed11 b73c 8cc3 023d 17c0 84bd
000001e0: a758 4a3e 2474 87bd 3a8e 0abf 2d42 bd3d
000001f0: 9248 54bf de81 0e3e ac3c 853e 807b 98bc
00000200: ea9b 0cbd 38ff 17be 2314 54be 0e7b 943d
00000210: 8a01 8dbe d98f 83bc 6d28 04bf 157f 7e3d
00000220: 7e29 61be f82a c93c c3f2 e83d a76e 8c3d
00000230: e419 973d 892c dd3d 9ba0 043e e689 b13d
00000240: 6969 f13b b7a7 673d 1c26 83be 7250 fe3b
00000250: 2d1f 2fbe 0cc1 8e3d 60be 21bc 863c f73b
00000260: 2f29 c7bc 0bf5 adbd 3f9c e5be 27d2 d1bd
00000270: 39db 383e 94f2 41be c09d 053f 6fcd 3bbe
00000280: 0a62 d5bd 4395 853d 8fa7 1c3e 9e85 3bbd
00000290: c56d 803f 38a3 14be 4497 aa3f f848 c9be
000002a0: 2253 92bd a204 9f3e f445 0b3e 3adc 513f
000002b0: 5ac1 b73d 14e9 d43e 5786 423d e04d 1e3e
000002c0: 549a 703d 86a7 2b3e 189f 0bbe da93 f43d
000002d0: cb4c 183e a242 82be b75f 2b3e cc2a a3be
000002e0: ba67 b8bb 5956 3dbf b257 6abd 3034 cf3d
000002f0: 61df 1d3d 8ab8 823d 1e79 973c c226 c73e
00000300: e67a 03bb cd1a e33e 245f 30be 669b bfbc
00000310: efab d4bd c7dc 5d3e bc89 d738 1794 7b3e
00000320: 0992 aabd 60a0 e53e dd48 e5bc 1ad5 d1bd
00000330: 827b da3c ac68 b2bd cc1d dd3d 2452 443c
00000340: 48bf 57bd 846b a13e 84fd 5e3e 7cd0 de3d
00000350: c607 e33d 4382 f1be 22ff c43d c279 95be
00000360: 24df b13d 7322 86be 62f0 e53e ef7a 4abe
00000370: 4a63 45be 218d 23be 65d7 08bf 9679 183d
00000380: 604a ddbe 9ba6 2a3e 0df4 1abe 1820 0e3e
00000390: b193 d1bc 7c09 e9bd 8ebf 173c 85b3 8fbc
000003a0: 6e83 173e 1f16 04be d4c0 ce3e 7baf c1be
000003b0: 7a8d 123e a0d4 9b3c 6efe d9bd e312 24bd
000003c0: 4a30 593e c352 74bd 7836 c8bc e33e 6bbe
000003d0: 7fc8 553d 256b 433e d12b 4fbe c39e debd
000003e0: 61c6 f3bd 4cde 243e 17c6 16bf 3701 333d
000003f0: 50a5 d93c 14ba 913e b758 063e d26c 67be

sequential_2/dense_7/MatMul f4 [10, 20]
-0.16649528 -0.5239407 0.75712097 -0.39644814 0.34404442 0.24276797 -0.033910975 -0.3397351
-0.2912644 0.46344432 -0.124916255 0.6520336 -0.021296658 -0.28616887 0.076850116 -0.04332534
-0.28132138 -0.32410207 -0.18735012 -0.33910525 0.030088343 0.7473986 -0.32723776 0.59788346
-0.62121105 0.1386643 0.32881787 0.30835208 0.24185133 0.11317421 0.59736824 0.26516595
-0.3197845 0.056961067 -0.006623574 0.25166988 0.5691544 0.56133527 -0.10497137 -0.5391423
0.8391411 -0.51590395 0.5279249 0.5192001 -0.13081251 0.12982194 0.63575065 -0.8047465
-0.98982185 1.0174646 -0.55125415 0.88052684 0.30353078 -0.78144133 0.36915347 0.1857668
0.49539083 -0.26410532 0.38811803 0.40601423 0.85485244 -0.086183585 -0.44729 0.7887642
-0.3423197 0.53382564 0.47339934 -0.05229686 0.26166397 0.11801393 0.005383247 -0.1513993
-0.120541126 -0.06825896 0.01431486 0.18747428 1.0203218 0.65195423 -0.18502043 0.34673244
-0.120798506 -0.23603565 0.57386005 -0.77632004 0.57267517 -0.17451967 -0.22484271 0.10155582
0.06883393 0.10431288 0.2179364 0.57182115 0.6346536 -0.080526955 -0.14028916 0.37355527
-0.27876005 -0.5159652 -0.319362 -0.13756235 -0.4592002 0.12556377 0.51075226 -0.26967964
-0.05525805 -0.31705683 -0.11942301 -0.41336748 0.07779428 -0.39364398 0.098138615 -0.08282294
0.0710741 -0.29974985 -0.45250696 -0.1327403 -0.3148192 -0.32655257 0.0018930484 -0.26812863
0.31976268 0.6862498 -0.2894818 0.8232739 0.90342844 -0.6313464 0.06568428 1.0553532
0.9064628 -0.19199796 0.4310273 -0.29707527 0.18083325 0.6249059 -0.31517768 0.23633848
0.42706195 -0.54415756 -0.40252447 0.8668751 -0.13495158 0.3316691 0.55851334 -0.3381381
0.22547847 0.44664878 -0.06501428 0.4051859 -0.11151928 0.016868055 0.23299125 0.9001344
-0.09199706 -0.06276666 -0.34494627 0.0160005 -0.35627645 0.21142758 0.21375798 -0.30810374
0.39936858 0.7172555 -0.2449606 0.064936265 -0.6102142 0.34456134 0.21922362 0.61575466
0.4657318 0.052140903 0.50313133 -0.40852913 -0.61962837 0.620933 -0.24507768 0.113558844
0.57735866 0.36391467 -0.20948458 -0.015717836 0.51998967 -0.19675142 0.09562965 0.45404387
-0.2809339 0.57421875 -0.8038668 0.27026036 -0.053297523 0.15771969 -0.07089467 0.195273
-0.17009369 -0.10888385 0.09287276 0.076634444 0.5158883 -0.06689825 -0.28510648 0.3119942
00000000: bd7d 2abe fa20 06bf aed2 413f 40fb cabe
00000010: 9726 b03e 2b98 783e 3ce6 0abd c2f1 adbe
00000020: 9c20 95be 9348 ed3e 18d4 ffbd adeb 263f
00000030: 5476 aebc ba84 92be 9863 9d3d e975 31bd
00000040: 5b09 90be b5f0 a5be b6d8 3fbe 349f adbe
00000050: d47b f63c 8455 3f3f b58b a7be e40e 193f
00000060: b007 1fbf 04fe 0d3e d15a a83e 53e0 9d3e
00000070: e0a7 773e e1c7 e73d 20ed 183f d5c3 873e
00000080: cbba a3be 0250 693d 910a d9bb e0da 803e
00000090: 1ab4 113f abb3 0f3f 3bfb d6bd 3b05 0abf
000000a0: f3d1 563f 4812 04bf 1626 073f 4cea 043f
000000b0: b7f3 05be 0bf0 043e 8ec0 223f de03 4ebf
000000c0: f764 7dbf 483c 823f fe1e 0dbf 356a 613f
000000d0: 6368 9b3e 8a0c 48bf af01 bd3e a739 3e3e
000000e0: dea3 fd3e d038 87be 68b7 c63e 19e1 cf3e
000000f0: 9cd7 5a3f 0581 b0bd 3203 e5be 73ec 493f
00000100: 8744 afbe cca8 083f 6661 f23e 3b35 56bd
00000110: d2f8 853e 4ab1 f13d f365 b03b 6b08 1bbe
00000120: 44de f6bd 5bcb 8bbd e088 6a3c 42f9 3f3e
00000130: e899 823f 79e6 263f ff75 3dbe ea86 b13e
00000140: 3565 f7bd 54b3 71be 7ee8 123f e9bc 46bf
00000150: d79a 123f 49b5 32be 2b3d 66be 7ffc cf3d
00000160: cef8 8c3d fea1 d53d b82a 5f3e df62 123f
00000170: a978 223f 51eb a4bd f6a7 0fbe a342 bf3e
00000180: a3b9 8ebe 4c16 04bf 6b83 a3be 25dd 0cbe
00000190: 4a1c ebbe ca93 003e a9c0 023f 7313 8abe
000001a0: 4456 62bd 4655 a2be 0d94 f4bd e7a4 d3be
000001b0: 9c52 9f3d b48b c9be e6fc c83d 139f a9bd
000001c0: 4c8f 913d d078 99be feae e7be 13ed 07be
000001d0: fb2f a1be e631 a7be 2a20 f83a 2848 89be
000001e0: efb7 a33e 11ae 2f3f f536 94be 14c2 523f
000001f0: 1647 673f eb9f 21bf 7b85 863d d015 873f
00000200: f20d 683f 1d9b 44be 9caf dc3e 401a 98be
00000210: 5a2c 393e d5f9 1f3f f85e a1be b702 723e
00000220: dda7 da3e e94d 0bbf b017 cebe 87eb 5d3f
00000230: bf30 0abe 88d0 a93e bbfa 0e3f 7020 adbe
00000240: d4e3 663e 26af e43e 3526 85bd 8774 cf3e
00000250: 3864 e4bd e02e 8a3c 4295 6e3e 356f 663f
00000260: f468 bcbd ce8b 80bd cc9c b0be 7b13 833c
00000270: de69 b6be 7980 583e 5fe3 5a3e c6bf 9dbe
00000280: 0a7a cc3e 0e9e 373f f4d6 7abe 4efd 843d
00000290: ff36 1cbf 586a b03e 287c 603e 19a2 1d3f
000002a0: 6674 ee3e b391 553d 37cd 003f bb2a d1be
000002b0: f79f 1ebf 77f5 1e3f a5f5 7abe 8a91 e83d
000002c0: c7cd 133f 0653 ba3e 2083 56be b1c2 80bc
000002d0: 0b1e 053f 3479 49be 7ad9 c33d 7078 e83e
000002e0: 91d6 8fbe 0000 133f 37ca 4dbf 915f 8a3e
000002f0: 814e 5abd 4581 213e 3a31 91bd a5f5 473e
00000300: 0a2d 2ebe 7ffe debd 1334 be3d 85f2 9c3d
00000310: 4111 043f f301 89bd 7af9 91be b4bd 9f3e

sequential_2/dense_8/MatMul f4 [4, 10]
-0.43884513 -0.23366843 1.1101546 0.81346416 -0.71565765 0.40052292 0.3064258 -1.3456323
-0.29209268 0.9663715 -0.45412678 -0.28712213 -1.1192183 -0.676152 0.28143582 -0.6153383
0.9679286 0.14573596 -0.096673205 -1.0097023 0.4190726 0.020703107 0.72456455 -0.373862
0.5815435 0.11596057 -0.70145464 1.1897804 -0.2548914 -0.49801543 -0.58744144 0.89367044
-0.35442942 0.732972 -0.8367655 -0.13939849 0.431978 -0.12971863 0.78577375 0.5670938
00000000: 4fb0 e0be c746 6fbe 8c19 8e3f 303f 503f
00000010: 5735 37bf 5711 cd3e d8e3 9c3e ae3d acbf
00000020: 2c8d 95be 1f64 773f 4e83 e8be ac01 93be
00000030: 8c42 8fbf 4c18 2dbf 5b18 903e d086 1dbf
00000040: 2bca 773f cf3b 153e 9afc c5bd ed3d 81bf
00000050: af90 d63e 9099 a93c 107d 393f d76a bfbe
00000060: 09e0 143f bc7c ed3d 8892 33bf b94a 983f
00000070: 2081 82be e1fb febe 9062 16bf 96c7 643f
00000080: c677 b5be 0ea4 3b3f 4436 56bf 7abe 0ebe
00000090: 382c dd3e f6d4 04be 7828 493f 0f2d 113f
